model/model.pth (torch, 17609 bytes, 4 tensors)

linear1.weight f4 [256, 11]
000000 56 0e 45 bf 1c 4d 65 3d c8 0e 29 bf 46 96 85 3e
       -0.76975 0.05598174 -0.6603818 0.26091212
000010 62 4c 90 be aa ac 85 be 0f 85 15 bf c4 92 97 be
       -0.28183275 -0.26108295 -0.58406156 -0.2960416
000020 f4 06 d2 3e 8e 89 59 be 1c 23 0f bf 11 67 6c 3e
       0.4102093 -0.21243879 -0.5591295 0.23086192
000030 51 9c 27 3d 48 7b 80 3e 0a 3e c0 bd 73 f4 f2 be
       0.04092056 0.25094056 -0.09386833 -0.47452125
000040 41 da bc be 6c e6 a0 be e7 80 c5 3d bf c9 80 3e
       -0.36885265 -0.31425798 0.09643727 0.2515392
000050 a4 2b 69 3d bf e4 6c 3d 37 35 d9 be 14 ad e8 3e
       0.056926385 0.057835337 -0.42423412 0.45444548
000060 97 4d da 3e 09 f6 96 be 2f 98 94 bf 67 25 8b be
       0.4263732 -0.29484585 -1.1608943 -0.27176973
000070 d2 10 51 bd f4 a0 3a bf 4b e7 c6 be e1 6d 9b be
       -0.05104143 -0.72901845 -0.38848338 -0.30357268
000080 4c 50 8d 3c f5 37 78 be ff e2 e7 3e 29 b5 72 bf
       0.017250203 -0.24240096 0.45290372 -0.9480768
000090 77 3b 97 bd a9 55 a3 3e 83 b9 9c 3e 39 2b ea be
       -0.07384389 0.3190129 0.30610284 -0.457361
0000a0 ee 41 5b bf f3 4b 73 be 2d d0 24 bf 85 f4 d5 bf
       -0.85647476 -0.23759441 -0.6438015 -1.6715246
0000b0 13 93 4d 3e 8b 6b f8 be f6 8e ce bc 67 5c c7 be
       0.20075636 -0.4851955 -0.025214653 -0.38937685
0000c0 91 b8 93 be c9 65 88 bd 9b 86 9f 3e 82 56 a4 3e
       -0.2885175 -0.06660039 0.31157383 0.3209725
0000d0 02 fe 85 be b5 96 f3 be 58 96 e6 be 8b 94 b0 be
       -0.26170355 -0.47575918 -0.45036578 -0.3448833
0000e0 2d 8b 23 3e 26 a9 54 bf f4 db 22 3e 5d 85 8d bf
       0.1597106 -0.830706 0.15904218 -1.1056324
0000f0 10 9e 8b bf 0c 3a 02 3f ab 46 d2 bf 90 a4 95 bf
       -1.0907612 0.5086982 -1.6427816 -1.1690845
000100 d8 40 6a bf 36 6e 32 3f 38 ae 88 be 9d c9 90 3d
       -0.91505194 0.6969942 -0.26695418 0.07069705
000110 77 d2 9b 3e d0 b9 34 be 10 42 90 be 82 8d 00 bf
       0.3043401 -0.17649007 -0.28175402 -0.50215924
000120 02 c7 b0 bd 06 e6 7d 3a 42 7f 16 bd 45 da ac 3d
       -0.08631708 0.000968546 -0.036742456 0.08440069
000130 ff 22 95 3d 08 2b 32 3e 4f fb 21 be 9f 6a 42 bf
       0.072820656 0.17399228 -0.15818523 -0.7594394
000140 af c4 c7 3e 26 8b af 3e 62 c4 c7 be 27 8e 28 be
       0.39017245 0.3428585 -0.39017016 -0.16460477
000150 7d 26 0a bf f8 66 34 bf cc 4e d7 3b 17 bd c5 bd
       -0.5396498 -0.7046962 0.0065706726 -0.09655207
000160 7e b1 73 be e1 1e 5a bf 0f d1 3d 3f 85 74 09 bd
       -0.23798177 -0.8520337 0.74147123 -0.033558387
000170 ee ea a5 3e 63 12 4d bd 1d 2d 43 3e 51 9f 7b be
       0.324058 -0.050066363 0.19060178 -0.24572493
000180 72 6c 89 be 27 98 61 bf 67 74 f8 be 21 8a b1 3c
       -0.2684055 -0.8812279 -0.48526308 0.02167231
000190 2c 97 83 be 82 bd c3 3d d2 6f b4 3e b5 12 aa be
       -0.25701272 0.0955763 0.35241562 -0.33217397
0001a0 73 18 bd be d3 9e 9f 3e 64 b4 4d bf 60 6d fb be
       -0.36932716 0.3117586 -0.8035338 -0.49106884
0001b0 b0 34 2e 3e cd 61 07 bf 5d 19 78 3e 57 f4 b5 be
       0.17012286 -0.5288361 0.24228425 -0.3553798
0001c0 b2 4e 63 3c 20 91 75 3e 25 7f a0 be ab fb 93 3d
       0.013873743 0.23981142 -0.31347004 0.07225736
0001d0 3c 67 b9 3d fb 25 b7 be a4 21 45 be c8 39 fc 3d
       0.090528935 -0.35771164 -0.19251114 0.123157084
0001e0 86 40 de 3d b3 2c 14 3e ef 36 8f be 23 a2 6c bf
       0.108521506 0.14470176 -0.27971599 -0.924349
0001f0 fb 75 29 3f e4 13 83 bf c4 2d 69 be 72 7b f7 3e
       0.6619565 -1.0240445 -0.22771364 0.4833637
000200 10 3f 61 3e 7d c8 93 bf db 13 9a bf 6d a7 f9 be
       0.21996713 -1.1545559 -1.203731 -0.48760548
000210 ec 3f c0 3e e2 2c 61 bd 48 f7 70 3e 49 66 82 be
       0.3754877 -0.054974444 0.2353183 -0.25468662
000220 30 8f 42 be f1 b7 e3 be bd 90 ef be ef 2d 2d 3c
       -0.18999934 -0.44476274 -0.46790114 0.010570033
000230 72 c7 84 3c 08 bd ba bd bb 9d 94 3d 05 6f a8 bf
       0.016208384 -0.09118086 0.07256647 -1.315888
000240 87 96 8c 3e 13 12 26 3e 5f 6e 7e 3e 57 8c 0d 3f
       0.27458593 0.16217832 0.2484679 0.55292267
000250 57 69 7f bf 8c 5f 30 bf 31 54 a4 3e c8 86 10 3f
       -0.9977011 -0.6889579 0.32095483 0.5645566
000260 24 42 50 bf 10 48 68 bf ab 6e 95 3d 2d 4f b4 3d
       -0.8135092 -0.9073496 0.07296499 0.08804164
000270 e3 62 c3 3d df 18 ea 3e ad 28 d1 be 93 89 a7 be
       0.095403455 0.457221 -0.40851346 -0.32722148
000280 99 5c fd 3e c6 46 7a bf 67 26 82 bf 00 f4 9e 3e
       0.4948471 -0.9776424 -1.016797 0.31045532
000290 21 9f 14 bf e6 57 1c bf da 9a 35 3e 20 e7 1f bf
       -0.5805531 -0.6107162 0.17734852 -0.62462044
0002a0 cd 6e 06 be f1 a0 f8 bd 7e 79 6d 3f 7a 3a ae 3e
       -0.13128205 -0.12140072 0.9276351 0.3402899
0002b0 ab ef 9c 3e 4e 81 a8 3e bc 45 61 bf 43 9b c2 be
       0.30651602 0.32911152 -0.8799703 -0.3800908
0002c0 1f 2d 33 bf 5c cd 74 bf 69 79 2b 3d 40 05 22 bf
       -0.69990724 -0.95625854 0.041863833 -0.6328926
0002d0 d0 05 63 3e b7 85 1e bf 91 04 25 bf 10 60 4f 3f
       0.22170186 -0.6192278 -0.6446009 0.81005955
0002e0 49 f7 3c be 08 d4 e3 3d 91 d4 fe 3d c4 7e 36 be
       -0.18453707 0.11124426 0.124428876 -0.17821795
0002f0 6d 07 5a bf df dc 73 be 36 e0 fe bd d6 e2 55 be
       -0.8516758 -0.23814724 -0.124451086 -0.20887312
000300 f0 9d a0 bd 38 bf 93 be 3e 1c 15 bd a7 a0 70 3d
       -0.07842624 -0.28856826 -0.036403887 0.05874696
000310 d5 e1 37 3e 23 96 75 3e 7a 25 28 bf ac 00 70 3e
       0.17957242 0.23983054 -0.65682185 0.23437756
000320 90 a2 aa be 43 18 ad 3e 99 39 05 bf 44 f8 4d be
       -0.3332715 0.33807573 -0.5204101 -0.20114237
000330 89 d5 73 be 9d c9 48 bf 0b be 43 bf 9a 0e 47 bf
       -0.23811926 -0.7843264 -0.7646186 -0.77756655
000340 0b 55 27 be 2e 50 de be 33 c2 99 be 62 22 87 3e
       -0.16341035 -0.43420547 -0.30030975 0.2639342
000350 af cf 1f be 26 95 7e bc e4 10 d8 bd d8 d5 8b 3e
       -0.15606569 -0.015538489 -0.10550097 0.27311587
000360 f9 88 45 bf 18 d6 ee be f8 9b ed be f1 b6 81 bf
       -0.7716213 -0.46647716 -0.46408057 -1.0133954
000370 43 74 b3 3e 28 20 7c 3e ba a6 51 3f 6a ce 97 bd
       0.35049638 0.24621642 0.8189503 -0.07412417
000380 69 09 11 bb 7c 67 be be 39 2e 39 3f f6 b0 9d 3e
       -0.0022130853 -0.37188327 0.72336155 0.30799073
000390 20 6d d0 be 8a 2c e7 3e b9 32 00 bf 12 0f 3c 3d
       -0.40708256 0.45151168 -0.50077397 0.04591281
0003a0 75 1c 4a 3e 27 56 1d be 32 f7 04 bf 09 93 57 3f
       0.19737418 -0.15364896 -0.5193969 0.8420873
0003b0 6e c4 14 bf 0e c1 20 3f 57 6a d3 be ac bf 7d bf
       -0.5811223 0.6279458 -0.41292068 -0.99120593
0003c0 f4 0f 9a 3e b8 78 6f bf 5c b1 6e be 0c 82 5c 3e
       0.30090296 -0.9354358 -0.23309845 0.21533984
0003d0 5d 3a 43 3e 11 e6 2c bf 89 d2 40 bf 05 6b 05 3f
       0.19065233 -0.67538553 -0.7532125 0.52116424
0003e0 05 e1 f3 3e 4e ec 89 bf 30 cb b3 bf 18 c5 1f 3e
       0.47632614 -1.077524 -1.4046383 0.15602529
0003f0 e6 91 1e 3e 82 9c b7 3d 43 ee 5a be 19 16 b9 be
       0.15485343 0.08965398 -0.21379952 -0.36149672

linear1.bias f4 [256]
000000 7c e5 61 be bd c0 3d bf 3f ea cf be e6 d7 5e 3f
       -0.22060198 -0.7412222 -0.40608403 0.87048185
000010 9c 37 9c be a6 77 31 3e 30 9e ff be e4 e2 75 3b
       -0.30511177 0.17330799 -0.49925375 0.003751927
000020 4f 07 18 3f 03 c8 f2 3c 29 a0 1f bf 6a f4 32 3f
       0.5938615 0.029636389 -0.6235376 0.69904196
000030 7c fb 13 bf 18 26 c7 3a db e2 dc bd 11 a9 e3 be
       -0.5780561 0.0015193848 -0.10785457 -0.44464925
000040 ee 53 bb be 6c c1 61 be 9b 97 a7 3d 72 cf 05 3e
       -0.3658747 -0.22046441 0.08183213 0.13067415
000050 6f 15 f3 be 23 99 4d 3e a0 89 b0 3e b3 42 d1 be
       -0.4747729 0.20077948 0.3448 -0.408712
000060 0e bc ae bc 8a 67 c4 be d0 5d 0e be 31 c6 d7 be
       -0.021329906 -0.38360244 -0.13902974 -0.42143396
000070 a0 13 9d 3e aa c8 36 bf c5 09 fd be ef b2 a2 be
       0.30679035 -0.7139994 -0.49421516 -0.3177714
000080 00 37 15 3f e7 f3 6f 3d 26 9d 09 bf 14 55 88 be
       0.5828705 0.058582213 -0.53755414 -0.2662741
000090 d9 a8 45 3f 02 1c 9c be f9 a6 5d be 8b ef 5c 3d
       0.77210766 -0.30490118 -0.21645726 0.053939383
0000a0 83 9a 20 3f bf 1e 8f be 5c 7d de 3e d8 cb 97 be
       0.62735766 -0.27953145 0.43455017 -0.29647708
0000b0 63 64 13 3e a8 56 00 3f f2 29 17 bf 55 54 de be
       0.14393763 0.50132227 -0.5904838 -0.43423715
0000c0 d8 d2 5b 3e 8f 0c e5 3d 3d ab a1 bc c3 36 86 3e
       0.2146715 0.11184036 -0.019734973 0.26213655
0000d0 8f 66 68 be d3 77 a0 3d f6 9a cb 3e 50 2a 47 be
       -0.22695373 0.07835355 0.39766663 -0.19449735
0000e0 10 49 49 be 6c 1f 3b be 96 23 6a be ba e3 09 bf
       -0.19656777 -0.18273705 -0.22865137 -0.5386311
0000f0 0d 7e 80 bf bc 4f 29 be 43 13 82 bd 42 93 f0 3d
       -1.0038468 -0.16534323 -0.0635133 0.11746837
000100 af a4 c0 be 4c d0 76 be 48 45 a0 be f5 9d 62 be
       -0.37625644 -0.24102896 -0.31302857 -0.22130568
000110 da 02 c6 3d c6 c3 f9 be 69 f0 92 be 02 58 80 3e
       0.09668513 -0.48782176 -0.28699043 0.25067145
000120 c7 54 93 3f 8d e5 e7 bd 9e d9 ad 3b b7 c8 97 be
       1.1510247 -0.1132308 0.005305483 -0.2964532
000130 a5 a4 8f 3d ec af 13 3f 08 f2 7a bd 20 87 f2 be
       0.07013825 0.5769031 -0.061265975 -0.47368717
000140 11 42 34 be e4 e6 51 bf da 54 47 be a5 06 fa 3e
       -0.17603327 -0.81992936 -0.19465962 0.48833194
000150 4a a6 ee be 29 02 7b be 43 2c 0a 3f 95 27 e4 be
       -0.46611243 -0.24512543 0.5397379 -0.4456145
000160 95 f0 b1 3c 1c d1 27 bf 51 c9 5b 3f 77 60 05 bf
       0.021721164 -0.6555345 0.8585406 -0.5210032
000170 a6 4d 12 bf f7 0e 82 be 98 96 56 3d 41 d2 2a bf
       -0.5714973 -0.25402042 0.05238971 -0.6672707
000180 b4 20 80 bd 81 8e 6b be 0d 86 f1 be d9 ea a4 be
       -0.062562376 -0.2300358 -0.47172585 -0.32210425
000190 fb be 8d be 38 37 70 bd 18 2c 5f 3a 53 26 b1 be
       -0.2768477 -0.05864641 0.00085133454 -0.34599552
0001a0 13 f3 13 bf 2e 83 a7 3d ad cd 98 be 07 38 30 bf
       -0.57792777 0.081793174 -0.29844418 -0.6883549
0001b0 d5 12 4c bf 5d 28 2f be 7b cb d7 be 82 85 f9 3e
       -0.79716235 -0.17105241 -0.4214743 0.4873467
0001c0 2f 3b c6 be 4b 84 22 3e 43 52 f7 be f1 fb bf be
       -0.38717028 0.15870778 -0.48304948 -0.37496904
0001d0 d3 3a 87 3e 0a 8f 93 be 94 ce 86 be 7d 14 12 3e
       0.26412067 -0.28820068 -0.26329482 0.14265628
0001e0 7d c4 98 be 26 5b 65 bf 4c 3a 3e 3f 99 31 8c be
       -0.2983741 -0.89592206 0.74307704 -0.2738159
0001f0 d0 cd 14 bf d9 38 2d 3e 23 ac ad be fe a4 81 be
       -0.58126545 0.16916217 -0.33920392 -0.25321192
000200 5b 15 a9 bd e3 95 3c be 46 fb ca 3d 66 55 35 bd
       -0.08256026 -0.18416552 0.09911208 -0.044270895
000210 36 f2 64 3e 74 e9 2a be dc 99 1a bf b1 3d 5b 3d
       0.22358021 -0.16690618 -0.6039102 0.05352563
000220 1d 36 f5 be c0 41 10 3f 5b b1 52 be 9b 57 7c 3d
       -0.47892848 0.56350327 -0.20575468 0.061606985
000230 bc 2c 36 be 26 02 98 be fd dd 6b bf 8d 26 e0 be
       -0.17790502 -0.2968914 -0.921356 -0.43779412
000240 00 5e 33 be c4 44 16 bf db ee bb be 0b 80 6c be
       -0.17516327 -0.5869868 -0.3670567 -0.2309572
000250 47 04 97 be 96 2f f0 be fc 11 3c 3d 1e 72 93 3e
       -0.2949545 -0.46911305 0.04591559 0.28798002
000260 07 86 c2 be b7 2f ce be 1d 7b 64 bd 9c 52 9e be
       -0.3799288 -0.4027078 -0.055781472 -0.309224
000270 a5 55 c2 be c6 8d 2a bf d0 f8 50 bf 7d 96 d9 bc
       -0.37955967 -0.6662258 -0.8162966 -0.026561016
000280 d0 a1 8b be 28 b0 1c be 95 09 f0 be 09 c3 37 be
       -0.2727189 -0.15301573 -0.4688231 -0.17945494
000290 41 b6 df be c1 54 cd bd af 1d fd be d0 14 b3 bd
       -0.43693736 -0.10025931 -0.4943671 -0.08744204
0002a0 54 5d 86 3f 0f 1a 62 be 6c a0 40 be f1 a8 85 bd
       1.0497231 -0.22080253 -0.18811196 -0.06526364
0002b0 bb 27 80 be 2c 94 70 3e ff e4 87 3e 6c 27 10 be
       -0.25030312 0.23494023 0.26541898 -0.14077538
0002c0 97 af 90 be a7 ae a6 3e 9d fe 80 bd 27 f8 79 be
       -0.28258964 0.32555124 -0.06298564 -0.24411069
0002d0 d6 b7 d8 b9 91 1f 8a be 76 a8 6e be 08 2f 09 bf
       -0.000413357 -0.26977208 -0.2330645 -0.5358739
0002e0 e6 84 eb 3b 71 9d b1 be 79 e9 c9 3e 8d 50 a3 be
       0.0071874736 -0.3469043 0.39435938 -0.31897393
0002f0 31 f7 76 be 16 22 14 bf d3 1d 11 3e af 93 39 bf
       -0.24117734 -0.5786451 0.14171533 -0.7249097
000300 0a 76 0c bf e6 78 ab be c6 2d 7f bd 65 e8 45 bf
       -0.54867613 -0.33490676 -0.062299512 -0.7730773
000310 d7 55 13 bf 62 6b 33 bf 19 1d 0d 3d ec a8 7b be
       -0.57552856 -0.7008573 0.034451578 -0.24576157
000320 c2 d2 38 bf 35 bd a3 be 6c a0 f9 be 93 78 3d bf
       -0.7219659 -0.3198029 -0.48755205 -0.74012107
000330 8b e7 41 be 11 f3 be 3c fb 47 f8 be 46 5d b5 be
       -0.18935983 0.023309262 -0.48492417 -0.35422724
000340 6b 6d ab be 35 b0 b0 be 84 fb a9 be 03 8c 2f bf
       -0.33481917 -0.34509435 -0.33199704 -0.68573016
000350 58 64 03 bf 05 21 0f bf 88 91 91 be 97 f6 60 be
       -0.5132499 -0.5590976 -0.28431344 -0.21969067
000360 39 1e 45 be 76 c2 df bc c9 0a 81 be d0 78 99 be
       -0.1924981 -0.027314406 -0.2520354 -0.29974985
000370 01 1a ed be 76 06 92 be 46 54 14 bf 9d 22 0f be
       -0.46308902 -0.28520554 -0.5794109 -0.13978048
000380 48 d4 dd be b7 3e fc be e7 9c c8 be a5 a2 91 be
       -0.4332602 -0.49266598 -0.39182207 -0.284444
000390 7f 5a 2c bf 04 e3 3f 3e 4a 7e a1 bd 54 2a a1 be
       -0.67325586 0.18738943 -0.07885416 -0.31477606
0003a0 e3 33 bc be 69 9d fc be c1 9b af bc 71 c8 0b bf
       -0.36758336 -0.49338844 -0.021436574 -0.54602724
0003b0 3b db cf be fd a2 e5 bc a0 85 f6 be 24 72 9c 3e
       -0.40596947 -0.02803182 -0.48148823 0.30555832
0003c0 71 cc dd be e7 eb 64 bf e5 da ab 3e 85 9d 78 bf
       -0.4332004 -0.8942246 0.3356544 -0.97115356
0003d0 e3 9a 6a be 5b ac fc be 08 28 4d be c2 d2 b6 be
       -0.22910647 -0.49350247 -0.20034802 -0.3570767
0003e0 6e aa 0e bf cf 3c 3c bd 69 de 00 3e a8 44 2d bf
       -0.55728805 -0.04595643 0.12584843 -0.67682886
0003f0 33 ad 12 3c 86 29 9e be 79 ce 5a 3f 33 90 a2 be
       0.008952427 -0.30891055 0.854713 -0.3175064

linear2.weight f4 [3, 256]
000000 c4 69 96 be 6a cd 96 3b 9e c7 14 3c 0c 20 90 3e
       -0.29377568 0.004602124 0.009080796 0.2814945
000010 0f 26 a3 40 74 a8 04 3f a2 3b ae bc f9 26 aa 3f
       5.098396 0.5181954 -0.02126867 1.3293144
000020 47 d6 17 3e 0d 4d 64 bd 1c ba d5 3e 34 b5 e1 3e
       0.14827834 -0.055737544 0.41743553 0.4408356
000030 d2 f6 a1 bd 9a 7c f3 3e 80 cf e6 bd fa 3e 80 be
       -0.07908405 0.47556 -0.11270046 -0.25048047
000040 b6 11 62 3d 58 b8 c2 bc ea 18 4c 40 9f a9 2c bb
       0.05519267 -0.023769543 3.1890206 -0.002634622
000050 a0 18 43 be 4e b8 5d bf d4 5d 2c 3f 0c ba c9 bb
       -0.19052362 -0.8660935 0.6733067 -0.0061562117
000060 43 52 5c 3d 41 7e 87 be 31 9a fb bb 69 30 5b 3f
       0.05378939 -0.26463512 -0.007678293 0.85620743
000070 7b cb 95 3e 51 a5 44 40 08 30 5d bd a2 88 93 bd
       0.29256806 3.07259 -0.054000884 -0.07203795
000080 dc 10 90 3e 3a 59 d7 be d8 41 80 bd df 21 88 bd
       0.28137863 -0.42060262 -0.06262559 -0.066470854
000090 29 78 04 3f 61 11 1d 3e 80 03 1b 3e 2a c9 3d bc
       0.5174585 0.15338661 0.15138054 -0.011583606
0000a0 b9 43 0f 3f 78 27 b8 3c 42 2e cd 3e 06 7c 94 3c
       0.5596271 0.022479758 0.40074354 0.018125545
0000b0 24 4f 68 3e 8a 9d 0c 3f 7f 76 f5 3f 4d c6 e8 bd
       0.2268644 0.54927886 1.9176787 -0.11365948
0000c0 51 45 d9 3e db a5 87 3e d1 bb a2 bc 7e 17 2d be
       0.42435697 0.26493725 -0.019864948 -0.16903493
0000d0 f8 8e 11 ba c5 db ff 3b 01 9c 8b 3e d4 99 e7 bb
       -0.0005552615 0.007808181 0.2726746 -0.0070678983
0000e0 cb e1 61 be 8e b3 10 bc a9 52 26 bc 92 ff 2c be
       -0.2205879 -0.008831872 -0.010151544 -0.16894367
0000f0 4f 3e 25 40 45 86 52 bc 6b b0 7a be 61 06 b8 3e
       2.581928 -0.012849395 -0.2448136 0.35942367
000100 18 47 bc 3e 08 4e 14 3d 1f 64 ff 3d 5c 3c a3 be
       0.3677299 0.03620723 0.124702685 -0.31881988
000110 f4 53 f6 3e 02 f6 a2 bc e8 04 64 bc 8b 0d f0 3e
       0.48110926 -0.019892696 -0.013917185 0.46885332
000120 78 ab 37 3f 80 b8 2f 3f 88 12 db 3f bd cf b1 bd
       0.71746016 0.686409 1.711503 -0.08682201
000130 db 94 b7 3e d3 f3 0c 3e 07 6f a0 bc 3a df 37 bd
       0.35855755 0.13764887 -0.019584192 -0.04489062
000140 65 51 fe 3f 49 b2 37 40 fa bf 14 be 04 48 10 3f
       1.986859 2.8702567 -0.14526358 0.5635989
000150 45 e3 0d 3f 24 e9 cf be 0b d6 b5 3e 60 0e 05 be
       0.5542491 -0.4060756 0.35514864 -0.12993765
000160 77 e2 a4 bd bd 4b 15 3e 86 5d 3e 3f f1 35 51 be
       -0.08051007 0.14579673 0.74361455 -0.20430733
000170 e0 03 34 3d e0 69 bb bd 6f 25 0a 3f e6 01 c4 3d
       0.043949008 -0.091510534 0.5396337 0.095706746
000180 13 2c 04 bd 3f 70 9c bf 47 cb 52 be 03 58 58 bd
       -0.032268595 -1.2221755 -0.20585357 -0.05281831
000190 47 26 ee 3b 78 76 43 be 21 72 93 3e 39 49 2f be
       0.0072677466 -0.19088161 0.2879801 -0.17117776
0001a0 c9 a8 16 bd fc 34 85 bc 45 4e 9f bc 97 0c 9b 3f
       -0.03678206 -0.016260616 -0.019446502 1.2113217
0001b0 1d 1d 3b 40 5b 4a 42 be 52 e4 24 be 04 8a 3c 3d
       2.923652 -0.18973677 -0.16102722 0.04603006
0001c0 00 86 fc 3f 78 40 4f 3e b9 10 f7 3f 24 88 db ba
       1.9728394 0.20239437 1.9301978 -0.0016748947
0001d0 aa 3f 91 3e 31 7c 90 bd 3f 83 25 bc 7d ca 1a 3f
       0.28368884 -0.07054938 -0.010102092 0.6046522
0001e0 22 62 7f 40 14 ab 42 40 4f c1 55 3e 36 6c be 3d
       3.9903646 3.0416918 0.20874523 0.09297983
0001f0 4e 01 a2 be fd 10 10 3e 02 5b e8 bc f8 e7 09 bd
       -0.3164162 0.1406898 -0.028363708 -0.03366849
000200 0f 7c ce 3d 8a 17 f7 3d 74 41 fa 3d 40 29 e5 be
       0.10082256 0.120650366 0.122195154 -0.44758034
000210 0a 00 ca 3c 1b f9 c0 bd 55 82 b2 bc 33 7a 0b 3e
       0.024658222 -0.09422513 -0.021790663 0.13620834
000220 f9 9b 42 be 6c 0f 9c 3e 28 58 8e 3f 3e 16 c0 bd
       -0.19004811 0.30480516 1.1120653 -0.09379242
000230 e9 83 32 3c 7c b2 4a bf ec e7 2d 3d ab 30 84 3b
       0.010895708 -0.79178596 0.042457506 0.004034122
000240 6b cf 01 3d 7f 89 cd 3d cb 7a 82 3d e3 d0 9d be
       0.03169195 0.10035991 0.06371077 -0.3082343
000250 d8 a4 f4 be d7 13 f0 3f cc f7 61 3e 27 14 aa 3e
       -0.47782016 1.8756055 0.22067183 0.332185
000260 51 09 7b 3d 2c 45 ae bb 8a 32 9e bb 04 66 bc 3b
       0.06128818 -0.0053183045 -0.004827802 0.005749466
000270 10 56 41 3e 73 1c 04 3d d3 e3 02 40 f6 bc 99 3e
       0.18880486 0.032253694 2.0451553 0.30026978
000280 18 a5 3a 3d f3 3c 9d bb b9 7f f2 bc a0 a2 0b 3e
       0.045567602 -0.0047985255 -0.029601919 0.13636255
000290 8c f7 c7 bd 48 b8 46 bf 22 6a 72 bc 49 02 41 3c
       -0.09764013 -0.7762494 -0.014795812 0.01178033
0002a0 d0 e1 e6 3e fb 73 44 3c 38 30 5d be 85 29 2b 3d
       0.45094156 0.0119905425 -0.21600425 0.041787643
0002b0 45 0a a6 bc 12 d7 4e 3e 61 f4 16 3e 27 52 87 be
       -0.020268569 0.2019923 0.1474166 -0.26429865
0002c0 0e 33 26 bd 40 dd b2 3e f0 45 1b bd f1 dd ef be
       -0.040576033 0.34934425 -0.037908494 -0.46849015
0002d0 6e 58 31 bf 4c e2 87 3b 86 9b 64 3f 8e 87 99 3f
       -0.6927556 0.0041468497 0.8929981 1.1994493
0002e0 37 e9 92 3c e2 69 96 3c 18 a5 d5 3e 18 c7 19 be
       0.017933471 0.018361036 0.4172752 -0.15017354
0002f0 84 d5 09 bd 0e a8 a3 3d 29 e1 8b bd 6d 1d 05 bc
       -0.03365089 0.07991038 -0.06830055 -0.008124691
000300 2c 6d 64 3d 02 12 8e bc 75 95 21 3e 36 e4 bf 3e
       0.055768177 -0.017342571 0.1577967 0.374788
000310 b1 b5 1e 3d f5 c0 c6 bc 50 d1 1e 3e dd 4c 3b be
       0.038747493 -0.024261931 0.15509534 -0.1829104
000320 f5 37 98 bd 5f b3 36 3c ce 39 0c 3e 44 f2 bb bd
       -0.07432548 0.011151164 0.13693926 -0.09177068
000330 b3 6b 2f be 96 49 85 bd c7 c0 f3 bd 23 35 e5 be
       -0.17130928 -0.06508176 -0.11902004 -0.44767103
000340 30 ed d3 3a f3 65 8e bc ed 22 14 bd 9b f1 dc 3e
       0.001616871 -0.017382598 -0.03616612 0.4315308
000350 cd 65 20 3d cf 8c dc be 32 8c 0d be 3c 78 ad be
       0.039159585 -0.43076178 -0.13823012 -0.33880794
000360 ec 90 9f be f6 d5 9e bc 57 ca 9a bc 2c 77 00 bd
       -0.31165254 -0.019389134 -0.018895311 -0.03136365
000370 6f 28 81 40 a6 ec ec bc 8b 12 af 3e 95 1e 38 bd
       4.0361857 -0.028921437 0.34193835 -0.04495104
000380 04 92 87 3d 55 e4 21 bd c2 5e ac 3b ca 22 3b 40
       0.06619647 -0.039524395 0.0052603194 2.9239984
000390 78 65 d5 be 78 b9 3a bf 9e 71 6d bd 28 d2 d2 3c
       -0.41678977 -0.7293925 -0.057969682 0.025734976
0003a0 01 07 11 be 89 d5 92 3d 87 d6 fd 3f 57 8e dc be
       -0.14162828 0.07169635 1.9831094 -0.43077347
0003b0 74 77 ec ba f5 81 68 3d 08 d2 2d 3e db 32 3c 3c
       -0.0018040971 0.05676456 0.16974652 0.011486734
0003c0 6a 81 1c bd 46 96 82 3c 63 10 b7 3e cd 76 e5 bb
       -0.038209356 0.015940797 0.3575469 -0.0070026875
0003d0 70 a6 d5 3c 8b f3 67 be 76 52 c1 3f 7f cf 08 be
       0.02608034 -0.22651498 1.510329 -0.13360403
0003e0 46 25 bc bb f7 d7 a9 3d 20 df ee 3e ff 87 34 bc
       -0.005741748 0.08293145 0.46654606 -0.011018752
0003f0 3b 13 f4 3e 7b 61 90 be b5 fd 20 3f ab 29 c3 bd
       0.47670922 -0.28199372 0.62887126 -0.09529432

linear2.bias f4 [3]
000000 01 7c 06 3f 3b 48 80 3d 5d c7 ee bc
       0.52532965 0.06263777 -0.029147798
